…
I0512 17:45:11.787564 25020 net.cpp:322] The NetState phase (0) differed from the phase (1) specified by a rule in layer data
I0512 17:45:11.787576 25020 net.cpp:322] The NetState phase (0) differed from the phase (1) specified by a rule in layer accuracy
I0512 17:45:11.787686 25020 net.cpp:58] Initializing net from parameters: 
name: "60net"
state {
  phase: TRAIN
  level: 0
  stage: ""
}
layer {
  name: "data"
  type: "HDF5Data"
  top: "data"
  top: "label"
  include {
    phase: TRAIN
  }
  hdf5_data_param {
    source: "./train/path_train.txt"
    batch_size: 32
  }
}
layer {
  name: "conv1"
  type: "Convolution"
  bottom: "data"
  top: "conv1"
  param {
    lr_mult: 1
  }
  param {
    lr_mult: 2
  }
  convolution_param {
    num_output: 5
    kernel_size: 5
    stride: 1
    weight_filler {
      type: "xavier"
    }
    bias_filler {
      type: "constant"
    }
  }
}
layer {
  name: "pool1"
  type: "Pooling"
  bottom: "conv1"
  top: "pool1"
  pooling_param {
    pool: MAX
    kernel_size: 2
    stride: 2
  }
}
layer {
  name: "relu1_1"
  type: "ReLU"
  bottom: "pool1"
  top: "pool1"
}
layer {
  name: "conv2"
  type: "Convolution"
  bottom: "pool1"
  top: "conv2"
  param {
    lr_mult: 1
  }
  param {
    lr_mult: 2
  }
  convolution_param {
    num_output: 5
    stride: 1
    weight_filler {
      type: "xavier"
    }
    bias_filler {
      type: "constant"
    }
    kernel_h: 1
    kernel_w: 5
  }
}
layer {
  name: "conv3"
  type: "Convolution"
  bottom: "conv2"
  top: "conv3"
  param {
    lr_mult: 1
  }
  param {
    lr_mult: 2
  }
  convolution_param {
    num_output: 20
    stride: 1
    weight_filler {
      type: "xavier"
    }
    bias_filler {
      type: "constant"
    }
    kernel_h: 5
    kernel_w: 1
  }
}
layer {
  name: "pool2"
  type: "Pooling"
  bottom: "conv3"
  top: "pool2"
  pooling_param {
    pool: MAX
    kernel_size: 2
    stride: 2
  }
}
layer {
  name: "relu1_2"
  type: "ReLU"
  bottom: "pool2"
  top: "pool2"
}
layer {
  name: "conv4"
  type: "Convolution"
  bottom: "pool2"
  top: "conv4"
  param {
    lr_mult: 1
  }
  param {
    lr_mult: 2
  }
  convolution_param {
    num_output: 15
    kernel_size: 5
    stride: 1
    weight_filler {
      type: "xavier"
    }
    bias_filler {
      type: "constant"
    }
  }
}
layer {
  name: "pool3"
  type: "Pooling"
  bottom: "conv4"
  top: "pool3"
  pooling_param {
    pool: MAX
    kernel_size: 2
    stride: 2
  }
}
layer {
  name: "relu1_3"
  type: "ReLU"
  bottom: "pool3"
  top: "pool3"
}
layer {
  name: "ip1"
  type: "InnerProduct"
  bottom: "pool3"
  top: "ip1"
  param {
    lr_mult: 1
  }
  param {
    lr_mult: 2
  }
  inner_product_param {
    num_output: 25
    weight_filler {
      type: "xavier"
    }
    bias_filler {
      type: "constant"
    }
  }
}
layer {
  name: "relu1"
  type: "ReLU"
  bottom: "ip1"
  top: "ip1"
}
layer {
  name: "drop1"
  type: "Dropout"
  bottom: "ip1"
  top: "ip1"
  dropout_param {
    dropout_ratio: 0.1
  }
}
layer {
  name: "drop2"
  type: "Dropout"
  bottom: "ip1"
  top: "ip1"
  dropout_param {
    dropout_ratio: 0.1
  }
}
layer {
  name: "ip2"
  type: "InnerProduct"
  bottom: "ip1"
  top: "ip2"
  param {
    lr_mult: 1
  }
  param {
    lr_mult: 2
  }
  inner_product_param {
    num_output: 5
    weight_filler {
      type: "xavier"
    }
    bias_filler {
      type: "constant"
    }
  }
}
layer {
  name: "loss"
  type: "SoftmaxWithLoss"
  bottom: "ip2"
  bottom: "label"
  top: "loss"
}
I0512 17:45:11.787761 25020 layer_factory.hpp:77] Creating layer data
I0512 17:45:11.787801 25020 net.cpp:100] Creating Layer data
I0512 17:45:11.787809 25020 net.cpp:408] data -> data
I0512 17:45:11.787832 25020 net.cpp:408] data -> label
I0512 17:45:11.787840 25020 hdf5_data_layer.cpp:79] Loading list of HDF5 filenames from: ./train/path_train.txt
I0512 17:45:11.787883 25020 hdf5_data_layer.cpp:93] Number of HDF5 files: 1
I0512 17:45:11.788609 25020 hdf5.cpp:32] Datatype class: H5T_FLOAT
I0512 17:45:11.820196 25020 hdf5.cpp:35] Datatype class: H5T_INTEGER
I0512 17:45:11.820876 25020 net.cpp:150] Setting up data
I0512 17:45:11.820890 25020 net.cpp:157] Top shape: 32 1 60 60 (115200)
I0512 17:45:11.820894 25020 net.cpp:157] Top shape: 32 1 1 1 (32)
I0512 17:45:11.820896 25020 net.cpp:165] Memory required for data: 460928
I0512 17:45:11.820902 25020 layer_factory.hpp:77] Creating layer conv1
I0512 17:45:11.820930 25020 net.cpp:100] Creating Layer conv1
I0512 17:45:11.820945 25020 net.cpp:434] conv1 <- data
I0512 17:45:11.820966 25020 net.cpp:408] conv1 -> conv1
I0512 17:45:12.219529 25020 net.cpp:150] Setting up conv1
I0512 17:45:12.219553 25020 net.cpp:157] Top shape: 32 5 56 56 (501760)
I0512 17:45:12.219558 25020 net.cpp:165] Memory required for data: 2467968
I0512 17:45:12.219585 25020 layer_factory.hpp:77] Creating layer pool1
I0512 17:45:12.219602 25020 net.cpp:100] Creating Layer pool1
I0512 17:45:12.219606 25020 net.cpp:434] pool1 <- conv1
I0512 17:45:12.219622 25020 net.cpp:408] pool1 -> pool1
I0512 17:45:12.219683 25020 net.cpp:150] Setting up pool1
I0512 17:45:12.219689 25020 net.cpp:157] Top shape: 32 5 28 28 (125440)
I0512 17:45:12.219692 25020 net.cpp:165] Memory required for data: 2969728
I0512 17:45:12.219694 25020 layer_factory.hpp:77] Creating layer relu1_1
I0512 17:45:12.219709 25020 net.cpp:100] Creating Layer relu1_1
I0512 17:45:12.219712 25020 net.cpp:434] relu1_1 <- pool1
I0512 17:45:12.219717 25020 net.cpp:395] relu1_1 -> pool1 (in-place)
I0512 17:45:12.219982 25020 net.cpp:150] Setting up relu1_1
I0512 17:45:12.219991 25020 net.cpp:157] Top shape: 32 5 28 28 (125440)
I0512 17:45:12.220005 25020 net.cpp:165] Memory required for data: 3471488
I0512 17:45:12.220007 25020 layer_factory.hpp:77] Creating layer conv2
I0512 17:45:12.220017 25020 net.cpp:100] Creating Layer conv2
I0512 17:45:12.220021 25020 net.cpp:434] conv2 <- pool1
I0512 17:45:12.220026 25020 net.cpp:408] conv2 -> conv2
I0512 17:45:12.221329 25020 net.cpp:150] Setting up conv2
I0512 17:45:12.221349 25020 net.cpp:157] Top shape: 32 5 28 24 (107520)
I0512 17:45:12.221352 25020 net.cpp:165] Memory required for data: 3901568
I0512 17:45:12.221359 25020 layer_factory.hpp:77] Creating layer conv3
I0512 17:45:12.221369 25020 net.cpp:100] Creating Layer conv3
I0512 17:45:12.221374 25020 net.cpp:434] conv3 <- conv2
I0512 17:45:12.221379 25020 net.cpp:408] conv3 -> conv3
I0512 17:45:12.222381 25020 net.cpp:150] Setting up conv3
I0512 17:45:12.222401 25020 net.cpp:157] Top shape: 32 20 24 24 (368640)
I0512 17:45:12.222404 25020 net.cpp:165] Memory required for data: 5376128
I0512 17:45:12.222411 25020 layer_factory.hpp:77] Creating layer pool2
I0512 17:45:12.222416 25020 net.cpp:100] Creating Layer pool2
I0512 17:45:12.222419 25020 net.cpp:434] pool2 <- conv3
I0512 17:45:12.222424 25020 net.cpp:408] pool2 -> pool2
I0512 17:45:12.222482 25020 net.cpp:150] Setting up pool2
I0512 17:45:12.222496 25020 net.cpp:157] Top shape: 32 20 12 12 (92160)
I0512 17:45:12.222499 25020 net.cpp:165] Memory required for data: 5744768
I0512 17:45:12.222512 25020 layer_factory.hpp:77] Creating layer relu1_2
I0512 17:45:12.222515 25020 net.cpp:100] Creating Layer relu1_2
I0512 17:45:12.222517 25020 net.cpp:434] relu1_2 <- pool2
I0512 17:45:12.222522 25020 net.cpp:395] relu1_2 -> pool2 (in-place)
I0512 17:45:12.222818 25020 net.cpp:150] Setting up relu1_2
I0512 17:45:12.222828 25020 net.cpp:157] Top shape: 32 20 12 12 (92160)
I0512 17:45:12.222841 25020 net.cpp:165] Memory required for data: 6113408
I0512 17:45:12.222844 25020 layer_factory.hpp:77] Creating layer conv4
I0512 17:45:12.222863 25020 net.cpp:100] Creating Layer conv4
I0512 17:45:12.222869 25020 net.cpp:434] conv4 <- pool2
I0512 17:45:12.222904 25020 net.cpp:408] conv4 -> conv4
I0512 17:45:12.224310 25020 net.cpp:150] Setting up conv4
I0512 17:45:12.224334 25020 net.cpp:157] Top shape: 32 15 8 8 (30720)
I0512 17:45:12.224337 25020 net.cpp:165] Memory required for data: 6236288
I0512 17:45:12.224342 25020 layer_factory.hpp:77] Creating layer pool3
I0512 17:45:12.224357 25020 net.cpp:100] Creating Layer pool3
I0512 17:45:12.224361 25020 net.cpp:434] pool3 <- conv4
I0512 17:45:12.224366 25020 net.cpp:408] pool3 -> pool3
I0512 17:45:12.224403 25020 net.cpp:150] Setting up pool3
I0512 17:45:12.224418 25020 net.cpp:157] Top shape: 32 15 4 4 (7680)
I0512 17:45:12.224421 25020 net.cpp:165] Memory required for data: 6267008
I0512 17:45:12.224433 25020 layer_factory.hpp:77] Creating layer relu1_3
I0512 17:45:12.224439 25020 net.cpp:100] Creating Layer relu1_3
I0512 17:45:12.224442 25020 net.cpp:434] relu1_3 <- pool3
I0512 17:45:12.224445 25020 net.cpp:395] relu1_3 -> pool3 (in-place)
I0512 17:45:12.224735 25020 net.cpp:150] Setting up relu1_3
I0512 17:45:12.224745 25020 net.cpp:157] Top shape: 32 15 4 4 (7680)
I0512 17:45:12.224758 25020 net.cpp:165] Memory required for data: 6297728
I0512 17:45:12.224761 25020 layer_factory.hpp:77] Creating layer ip1
I0512 17:45:12.224768 25020 net.cpp:100] Creating Layer ip1
I0512 17:45:12.224771 25020 net.cpp:434] ip1 <- pool3
I0512 17:45:12.224777 25020 net.cpp:408] ip1 -> ip1
I0512 17:45:12.224925 25020 net.cpp:150] Setting up ip1
I0512 17:45:12.224931 25020 net.cpp:157] Top shape: 32 25 (800)
I0512 17:45:12.224944 25020 net.cpp:165] Memory required for data: 6300928
I0512 17:45:12.224952 25020 layer_factory.hpp:77] Creating layer relu1
I0512 17:45:12.224967 25020 net.cpp:100] Creating Layer relu1
I0512 17:45:12.224969 25020 net.cpp:434] relu1 <- ip1
I0512 17:45:12.224974 25020 net.cpp:395] relu1 -> ip1 (in-place)
I0512 17:45:12.225266 25020 net.cpp:150] Setting up relu1
I0512 17:45:12.225275 25020 net.cpp:157] Top shape: 32 25 (800)
I0512 17:45:12.225277 25020 net.cpp:165] Memory required for data: 6304128
I0512 17:45:12.225281 25020 layer_factory.hpp:77] Creating layer drop1
I0512 17:45:12.225286 25020 net.cpp:100] Creating Layer drop1
I0512 17:45:12.225288 25020 net.cpp:434] drop1 <- ip1
I0512 17:45:12.225294 25020 net.cpp:395] drop1 -> ip1 (in-place)
I0512 17:45:12.225337 25020 net.cpp:150] Setting up drop1
I0512 17:45:12.225343 25020 net.cpp:157] Top shape: 32 25 (800)
I0512 17:45:12.225347 25020 net.cpp:165] Memory required for data: 6307328
I0512 17:45:12.225348 25020 layer_factory.hpp:77] Creating layer drop2
I0512 17:45:12.225363 25020 net.cpp:100] Creating Layer drop2
I0512 17:45:12.225366 25020 net.cpp:434] drop2 <- ip1
I0512 17:45:12.225370 25020 net.cpp:395] drop2 -> ip1 (in-place)
I0512 17:45:12.225397 25020 net.cpp:150] Setting up drop2
I0512 17:45:12.225402 25020 net.cpp:157] Top shape: 32 25 (800)
I0512 17:45:12.225404 25020 net.cpp:165] Memory required for data: 6310528
I0512 17:45:12.225407 25020 layer_factory.hpp:77] Creating layer ip2
I0512 17:45:12.225423 25020 net.cpp:100] Creating Layer ip2
I0512 17:45:12.225426 25020 net.cpp:434] ip2 <- ip1
I0512 17:45:12.225430 25020 net.cpp:408] ip2 -> ip2
I0512 17:45:12.225561 25020 net.cpp:150] Setting up ip2
I0512 17:45:12.225567 25020 net.cpp:157] Top shape: 32 5 (160)
I0512 17:45:12.225580 25020 net.cpp:165] Memory required for data: 6311168
I0512 17:45:12.225584 25020 layer_factory.hpp:77] Creating layer loss
I0512 17:45:12.225592 25020 net.cpp:100] Creating Layer loss
I0512 17:45:12.225596 25020 net.cpp:434] loss <- ip2
I0512 17:45:12.225600 25020 net.cpp:434] loss <- label
I0512 17:45:12.225605 25020 net.cpp:408] loss -> loss
I0512 17:45:12.225623 25020 layer_factory.hpp:77] Creating layer loss
…
I0512 17:45:12.226104 25020 net.cpp:283] Network initialization done.
I0512 17:45:12.226265 25020 solver.cpp:181] Creating test net (#0) specified by net file: ./60net_hw.prototxt
I0512 17:45:12.226287 25020 net.cpp:322] The NetState phase (1) differed from the phase (0) specified by a rule in layer data
I0512 17:45:12.226374 25020 net.cpp:58] Initializing net from parameters: 
name: "60net"
state {
  phase: TEST
}
layer {
  name: "data"
  type: "HDF5Data"
  top: "data"
  top: "label"
  include {
    phase: TEST
  }
  hdf5_data_param {
    source: "./test/path_test.txt"
    batch_size: 2
  }
}
layer {
  name: "conv1"
  type: "Convolution"
  bottom: "data"
  top: "conv1"
  param {
    lr_mult: 1
  }
  param {
    lr_mult: 2
  }
  convolution_param {
    num_output: 5
    kernel_size: 5
    stride: 1
    weight_filler {
      type: "xavier"
    }
    bias_filler {
      type: "constant"
    }
  }
}
layer {
  name: "pool1"
  type: "Pooling"
  bottom: "conv1"
  top: "pool1"
  pooling_param {
    pool: MAX
    kernel_size: 2
    stride: 2
  }
}
layer {
  name: "relu1_1"
  type: "ReLU"
  bottom: "pool1"
  top: "pool1"
}
layer {
  name: "conv2"
  type: "Convolution"
  bottom: "pool1"
  top: "conv2"
  param {
    lr_mult: 1
  }
  param {
    lr_mult: 2
  }
  convolution_param {
    num_output: 5
    stride: 1
    weight_filler {
      type: "xavier"
    }
    bias_filler {
      type: "constant"
    }
    kernel_h: 1
    kernel_w: 5
  }
}
layer {
  name: "conv3"
  type: "Convolution"
  bottom: "conv2"
  top: "conv3"
  param {
    lr_mult: 1
  }
  param {
    lr_mult: 2
  }
  convolution_param {
    num_output: 20
    stride: 1
    weight_filler {
      type: "xavier"
    }
    bias_filler {
      type: "constant"
    }
    kernel_h: 5
    kernel_w: 1
  }
}
layer {
  name: "pool2"
  type: "Pooling"
  bottom: "conv3"
  top: "pool2"
  pooling_param {
    pool: MAX
    kernel_size: 2
    stride: 2
  }
}
layer {
  name: "relu1_2"
  type: "ReLU"
  bottom: "pool2"
  top: "pool2"
}
layer {
  name: "conv4"
  type: "Convolution"
  bottom: "pool2"
  top: "conv4"
  param {
    lr_mult: 1
  }
  param {
    lr_mult: 2
  }
  convolution_param {
    num_output: 15
    kernel_size: 5
    stride: 1
    weight_filler {
      type: "xavier"
    }
    bias_filler {
      type: "constant"
    }
  }
}
layer {
  name: "pool3"
  type: "Pooling"
  bottom: "conv4"
  top: "pool3"
  pooling_param {
    pool: MAX
    kernel_size: 2
    stride: 2
  }
}
layer {
  name: "relu1_3"
  type: "ReLU"
  bottom: "pool3"
  top: "pool3"
}
layer {
  name: "ip1"
  type: "InnerProduct"
  bottom: "pool3"
  top: "ip1"
  param {
    lr_mult: 1
  }
  param {
    lr_mult: 2
  }
  inner_product_param {
    num_output: 25
    weight_filler {
      type: "xavier"
    }
    bias_filler {
      type: "constant"
    }
  }
}
layer {
  name: "relu1"
  type: "ReLU"
  bottom: "ip1"
  top: "ip1"
}
layer {
  name: "drop1"
  type: "Dropout"
  bottom: "ip1"
  top: "ip1"
  dropout_param {
    dropout_ratio: 0.1
  }
}
layer {
  name: "drop2"
  type: "Dropout"
  bottom: "ip1"
  top: "ip1"
  dropout_param {
    dropout_ratio: 0.1
  }
}
layer {
  name: "ip2"
  type: "InnerProduct"
  bottom: "ip1"
  top: "ip2"
  param {
    lr_mult: 1
  }
  param {
    lr_mult: 2
  }
  inner_product_param {
    num_output: 5
    weight_filler {
      type: "xavier"
    }
    bias_filler {
      type: "constant"
    }
  }
}
layer {
  name: "accuracy"
  type: "Accuracy"
  bottom: "ip2"
  bottom: "label"
  top: "accuracy"
  include {
    phase: TEST
  }
}
layer {
  name: "loss"
  type: "SoftmaxWithLoss"
  bottom: "ip2"
  bottom: "label"
  top: "loss"
}
I0512 17:45:12.226449 25020 layer_factory.hpp:77] Creating layer data
I0512 17:45:12.226456 25020 net.cpp:100] Creating Layer data
I0512 17:45:12.226459 25020 net.cpp:408] data -> data
I0512 17:45:12.226465 25020 net.cpp:408] data -> label
I0512 17:45:12.226470 25020 hdf5_data_layer.cpp:79] Loading list of HDF5 filenames from: ./test/path_test.txt
I0512 17:45:12.226490 25020 hdf5_data_layer.cpp:93] Number of HDF5 files: 1
I0512 17:45:12.231161 25020 net.cpp:150] Setting up data
I0512 17:45:12.231189 25020 net.cpp:157] Top shape: 2 1 60 60 (7200)
I0512 17:45:12.231194 25020 net.cpp:157] Top shape: 2 1 1 1 (2)
I0512 17:45:12.231195 25020 net.cpp:165] Memory required for data: 28808
I0512 17:45:12.231200 25020 layer_factory.hpp:77] Creating layer label_data_1_split
I0512 17:45:12.231211 25020 net.cpp:100] Creating Layer label_data_1_split
I0512 17:45:12.231215 25020 net.cpp:434] label_data_1_split <- label
I0512 17:45:12.231220 25020 net.cpp:408] label_data_1_split -> label_data_1_split_0
I0512 17:45:12.231230 25020 net.cpp:408] label_data_1_split -> label_data_1_split_1
I0512 17:45:12.231261 25020 net.cpp:150] Setting up label_data_1_split
I0512 17:45:12.231266 25020 net.cpp:157] Top shape: 2 1 1 1 (2)
I0512 17:45:12.231269 25020 net.cpp:157] Top shape: 2 1 1 1 (2)
I0512 17:45:12.231272 25020 net.cpp:165] Memory required for data: 28824
I0512 17:45:12.231274 25020 layer_factory.hpp:77] Creating layer conv1
I0512 17:45:12.231285 25020 net.cpp:100] Creating Layer conv1
I0512 17:45:12.231288 25020 net.cpp:434] conv1 <- data
I0512 17:45:12.231293 25020 net.cpp:408] conv1 -> conv1
I0512 17:45:12.232367 25020 net.cpp:150] Setting up conv1
I0512 17:45:12.232378 25020 net.cpp:157] Top shape: 2 5 56 56 (31360)
I0512 17:45:12.232380 25020 net.cpp:165] Memory required for data: 154264
I0512 17:45:12.232388 25020 layer_factory.hpp:77] Creating layer pool1
I0512 17:45:12.232395 25020 net.cpp:100] Creating Layer pool1
I0512 17:45:12.232398 25020 net.cpp:434] pool1 <- conv1
I0512 17:45:12.232403 25020 net.cpp:408] pool1 -> pool1
I0512 17:45:12.232445 25020 net.cpp:150] Setting up pool1
I0512 17:45:12.232450 25020 net.cpp:157] Top shape: 2 5 28 28 (7840)
I0512 17:45:12.232462 25020 net.cpp:165] Memory required for data: 185624
I0512 17:45:12.232465 25020 layer_factory.hpp:77] Creating layer relu1_1
I0512 17:45:12.232470 25020 net.cpp:100] Creating Layer relu1_1
I0512 17:45:12.232473 25020 net.cpp:434] relu1_1 <- pool1
I0512 17:45:12.232476 25020 net.cpp:395] relu1_1 -> pool1 (in-place)
I0512 17:45:12.232762 25020 net.cpp:150] Setting up relu1_1
I0512 17:45:12.232771 25020 net.cpp:157] Top shape: 2 5 28 28 (7840)
I0512 17:45:12.232784 25020 net.cpp:165] Memory required for data: 216984
I0512 17:45:12.232787 25020 layer_factory.hpp:77] Creating layer conv2
I0512 17:45:12.232795 25020 net.cpp:100] Creating Layer conv2
I0512 17:45:12.232797 25020 net.cpp:434] conv2 <- pool1
I0512 17:45:12.232802 25020 net.cpp:408] conv2 -> conv2
I0512 17:45:12.233688 25020 net.cpp:150] Setting up conv2
I0512 17:45:12.233698 25020 net.cpp:157] Top shape: 2 5 28 24 (6720)
I0512 17:45:12.233711 25020 net.cpp:165] Memory required for data: 243864
I0512 17:45:12.233717 25020 layer_factory.hpp:77] Creating layer conv3
I0512 17:45:12.233727 25020 net.cpp:100] Creating Layer conv3
I0512 17:45:12.233745 25020 net.cpp:434] conv3 <- conv2
I0512 17:45:12.233754 25020 net.cpp:408] conv3 -> conv3
I0512 17:45:12.234854 25020 net.cpp:150] Setting up conv3
I0512 17:45:12.234864 25020 net.cpp:157] Top shape: 2 20 24 24 (23040)
I0512 17:45:12.234876 25020 net.cpp:165] Memory required for data: 336024
I0512 17:45:12.234885 25020 layer_factory.hpp:77] Creating layer pool2
I0512 17:45:12.234891 25020 net.cpp:100] Creating Layer pool2
I0512 17:45:12.234894 25020 net.cpp:434] pool2 <- conv3
I0512 17:45:12.234899 25020 net.cpp:408] pool2 -> pool2
I0512 17:45:12.234944 25020 net.cpp:150] Setting up pool2
I0512 17:45:12.234951 25020 net.cpp:157] Top shape: 2 20 12 12 (5760)
I0512 17:45:12.234962 25020 net.cpp:165] Memory required for data: 359064
I0512 17:45:12.234964 25020 layer_factory.hpp:77] Creating layer relu1_2
I0512 17:45:12.234971 25020 net.cpp:100] Creating Layer relu1_2
I0512 17:45:12.234975 25020 net.cpp:434] relu1_2 <- pool2
I0512 17:45:12.234979 25020 net.cpp:395] relu1_2 -> pool2 (in-place)
I0512 17:45:12.235146 25020 net.cpp:150] Setting up relu1_2
I0512 17:45:12.235154 25020 net.cpp:157] Top shape: 2 20 12 12 (5760)
I0512 17:45:12.235158 25020 net.cpp:165] Memory required for data: 382104
I0512 17:45:12.235162 25020 layer_factory.hpp:77] Creating layer conv4
I0512 17:45:12.235169 25020 net.cpp:100] Creating Layer conv4
I0512 17:45:12.235173 25020 net.cpp:434] conv4 <- pool2
I0512 17:45:12.235179 25020 net.cpp:408] conv4 -> conv4
I0512 17:45:12.236481 25020 net.cpp:150] Setting up conv4
I0512 17:45:12.236491 25020 net.cpp:157] Top shape: 2 15 8 8 (1920)
I0512 17:45:12.236495 25020 net.cpp:165] Memory required for data: 389784
I0512 17:45:12.236501 25020 layer_factory.hpp:77] Creating layer pool3
I0512 17:45:12.236507 25020 net.cpp:100] Creating Layer pool3
I0512 17:45:12.236511 25020 net.cpp:434] pool3 <- conv4
I0512 17:45:12.236515 25020 net.cpp:408] pool3 -> pool3
I0512 17:45:12.236562 25020 net.cpp:150] Setting up pool3
I0512 17:45:12.236567 25020 net.cpp:157] Top shape: 2 15 4 4 (480)
I0512 17:45:12.236578 25020 net.cpp:165] Memory required for data: 391704
I0512 17:45:12.236582 25020 layer_factory.hpp:77] Creating layer relu1_3
I0512 17:45:12.236585 25020 net.cpp:100] Creating Layer relu1_3
I0512 17:45:12.236588 25020 net.cpp:434] relu1_3 <- pool3
I0512 17:45:12.236593 25020 net.cpp:395] relu1_3 -> pool3 (in-place)
I0512 17:45:12.236872 25020 net.cpp:150] Setting up relu1_3
I0512 17:45:12.236881 25020 net.cpp:157] Top shape: 2 15 4 4 (480)
I0512 17:45:12.236884 25020 net.cpp:165] Memory required for data: 393624
I0512 17:45:12.236886 25020 layer_factory.hpp:77] Creating layer ip1
I0512 17:45:12.236892 25020 net.cpp:100] Creating Layer ip1
I0512 17:45:12.236896 25020 net.cpp:434] ip1 <- pool3
I0512 17:45:12.236901 25020 net.cpp:408] ip1 -> ip1
I0512 17:45:12.237025 25020 net.cpp:150] Setting up ip1
I0512 17:45:12.237030 25020 net.cpp:157] Top shape: 2 25 (50)
I0512 17:45:12.237033 25020 net.cpp:165] Memory required for data: 393824
I0512 17:45:12.237040 25020 layer_factory.hpp:77] Creating layer relu1
I0512 17:45:12.237046 25020 net.cpp:100] Creating Layer relu1
I0512 17:45:12.237049 25020 net.cpp:434] relu1 <- ip1
I0512 17:45:12.237063 25020 net.cpp:395] relu1 -> ip1 (in-place)
I0512 17:45:12.237236 25020 net.cpp:150] Setting up relu1
I0512 17:45:12.237243 25020 net.cpp:157] Top shape: 2 25 (50)
I0512 17:45:12.237246 25020 net.cpp:165] Memory required for data: 394024
I0512 17:45:12.237258 25020 layer_factory.hpp:77] Creating layer drop1
I0512 17:45:12.237265 25020 net.cpp:100] Creating Layer drop1
I0512 17:45:12.237269 25020 net.cpp:434] drop1 <- ip1
I0512 17:45:12.237274 25020 net.cpp:395] drop1 -> ip1 (in-place)
I0512 17:45:12.237306 25020 net.cpp:150] Setting up drop1
I0512 17:45:12.237311 25020 net.cpp:157] Top shape: 2 25 (50)
I0512 17:45:12.237313 25020 net.cpp:165] Memory required for data: 394224
I0512 17:45:12.237315 25020 layer_factory.hpp:77] Creating layer drop2
I0512 17:45:12.237330 25020 net.cpp:100] Creating Layer drop2
I0512 17:45:12.237335 25020 net.cpp:434] drop2 <- ip1
I0512 17:45:12.237349 25020 net.cpp:395] drop2 -> ip1 (in-place)
I0512 17:45:12.237373 25020 net.cpp:150] Setting up drop2
I0512 17:45:12.237380 25020 net.cpp:157] Top shape: 2 25 (50)
I0512 17:45:12.237381 25020 net.cpp:165] Memory required for data: 394424
I0512 17:45:12.237385 25020 layer_factory.hpp:77] Creating layer ip2
I0512 17:45:12.237392 25020 net.cpp:100] Creating Layer ip2
I0512 17:45:12.237396 25020 net.cpp:434] ip2 <- ip1
I0512 17:45:12.237401 25020 net.cpp:408] ip2 -> ip2
I0512 17:45:12.237490 25020 net.cpp:150] Setting up ip2
I0512 17:45:12.237498 25020 net.cpp:157] Top shape: 2 5 (10)
I0512 17:45:12.237500 25020 net.cpp:165] Memory required for data: 394464
I0512 17:45:12.237505 25020 layer_factory.hpp:77] Creating layer ip2_ip2_0_split
I0512 17:45:12.237510 25020 net.cpp:100] Creating Layer ip2_ip2_0_split
I0512 17:45:12.237514 25020 net.cpp:434] ip2_ip2_0_split <- ip2
I0512 17:45:12.237517 25020 net.cpp:408] ip2_ip2_0_split -> ip2_ip2_0_split_0
I0512 17:45:12.237524 25020 net.cpp:408] ip2_ip2_0_split -> ip2_ip2_0_split_1
I0512 17:45:12.237552 25020 net.cpp:150] Setting up ip2_ip2_0_split
I0512 17:45:12.237557 25020 net.cpp:157] Top shape: 2 5 (10)
I0512 17:45:12.237560 25020 net.cpp:157] Top shape: 2 5 (10)
I0512 17:45:12.237562 25020 net.cpp:165] Memory required for data: 394544
I0512 17:45:12.237565 25020 layer_factory.hpp:77] Creating layer accuracy
I0512 17:45:12.237571 25020 net.cpp:100] Creating Layer accuracy
I0512 17:45:12.237577 25020 net.cpp:434] accuracy <- ip2_ip2_0_split_0
I0512 17:45:12.237583 25020 net.cpp:434] accuracy <- label_data_1_split_0
I0512 17:45:12.237591 25020 net.cpp:408] accuracy -> accuracy
…
